weights_and_biases.npz (npz, 15310 bytes, 4 tensors)

W1 f8 [54, 32]
000000 45 e6 c6 be 18 30 a0 bf 11 9c c9 d9 59 3f cd bf
       -0.03161694840259747 -0.22849581846387015
000010 e2 a2 96 29 0b ed d3 bf 88 4b 84 f3 c6 bd b1 bf
       -0.3113429933678572 -0.06930201955064608
000020 f7 b4 eb 0a cb ab b1 3f b7 2b f2 83 b1 d2 77 3f
       0.06902760521525751 0.005816167277894849
000030 7b c4 b1 8c a2 87 ab 3f 40 f0 58 65 70 7f d2 bf
       0.05376918761692991 -0.2890282621117457
000040 04 f5 d8 a7 1a a5 d0 3f 09 0c de 64 f7 1d b7 bf
       0.2600771559844619 -0.09030100071508697
000050 ce af ce d6 04 66 c9 3f dc 72 65 34 d6 87 a1 bf
       0.19842586983338467 -0.034239477058439965
000060 bd 10 7a ae 5c 98 aa bf bd 90 3d 1f 52 7a be bf
       -0.051943680094184576 -0.11905396712023993
000070 ab 68 08 f9 65 c8 dc 3f b3 df 93 82 78 b9 c8 3f
       0.4497313434564016 0.19316011787281936
000080 75 41 47 17 22 e8 d0 3f 4a a2 33 75 d1 91 d2 bf
       0.26416828416133536 -0.29015003629186664
000090 f4 c4 ca 2f 22 84 aa 3f 05 f5 a5 b1 1a cc 70 3f
       0.05178934892081513 0.0041008990032172
0000a0 fe a9 43 6e 3d 37 c5 3f a2 f8 1d f7 d8 cb a3 bf
       0.16574828990935936 -0.03866460815969332
0000b0 1e 9f 3d 3d b0 12 ab bf 18 2f da 1c 2d 61 b6 3f
       -0.0528769564396596 0.08742029146577257
0000c0 d2 aa d0 73 37 89 b7 3f 14 51 67 8d c2 5f c5 3f
       0.09193750932233094 0.16698486237022137
0000d0 7a 03 c0 ec 20 f1 b4 bf d2 61 ff ca 5a d6 b8 3f
       -0.08180433063536255 0.09702079254146348
0000e0 ef 6b 73 41 b1 d0 98 bf 76 ee 54 a3 6f cc bd 3f
       -0.024233598346523107 0.11640069711295972
0000f0 d7 ec fb d1 da c7 ad bf 67 30 54 aa 39 c5 a6 3f
       -0.05816539586336383 0.044473459283921817
000100 ce b8 60 65 76 7d af 3f f7 d4 7b 20 2a 8a 91 bf
       0.06150407779237953 -0.017128618462227654
000110 75 b9 09 aa 6b 61 d4 3f 1e 9c b3 8b fd 82 c5 bf
       0.31844607930442886 -0.16806001016013367
000120 cf 78 3e a0 77 9b af bf ed 56 98 a2 3d 8f ba bf
       -0.06173299628356831 -0.10374818057638509
000130 a4 28 df 33 95 5d ce 3f 68 dd e2 be e6 3c c9 3f
       0.23723092110441713 0.19717106171240606
000140 6f 87 08 65 24 96 af 3f 4d 3a f8 3d ca f4 bb bf
       0.06169236882511952 -0.1092039490979257
000150 59 0d 3b 5b 50 8b 63 3f 0f 1a 26 86 e5 77 9e 3f
       0.0023857659778926785 0.029754244149012673
000160 d3 c4 11 ef 25 69 b0 3f d9 61 18 7e c7 15 cf 3f
       0.06410443388610369 0.2428521505069188
000170 9a 2f 73 d6 9b a3 aa bf 7f e1 1d dd 77 e7 bb bf
       -0.052029485633823216 -0.10900067470891449
000180 c9 af 62 d3 f5 5d c6 3f eb 72 90 43 82 7a ac 3f
       0.17474243947560655 0.05562216830023722
000190 e7 a4 54 3b b3 2e af bf 70 4d 85 af 0f 84 a3 3f
       -0.06090316867114059 0.03811692254626109
0001a0 bc ce 34 a3 b7 9d 9c bf 1c 6f 75 e7 47 cb c5 3f
       -0.027945393883057376 0.1702661400003017
0001b0 68 01 bc 0d b2 d5 c0 3f ee 98 cb 0a 81 71 b8 3f
       0.13152146978974177 0.0954819346767157
0001c0 6b ec cc 69 2b 1e c9 3f 5e 80 9e 96 49 d0 85 3f
       0.19623320261038954 0.01065118304160267
0001d0 4a f1 0c 6a 0c 89 c7 bf a5 cd ac 51 e9 7d b5 bf
       -0.1838698880982384 -0.08395250553149099
0001e0 9d 98 34 dc 70 7f b5 3f 58 ba 9b 2b 8a 37 a1 bf
       0.08397584320172986 -0.03362685949638394
0001f0 4b 65 84 82 99 ba ce 3f 50 9e 79 34 fe e9 b1 bf
       0.24006956932934495 -0.06997669964914022
000200 26 d1 15 bc f1 d2 67 bf ba 17 11 f6 bd 77 c3 3f
       -0.0029082032567037284 0.15209173693636818
000210 ed 87 e4 b8 46 0b a6 bf 01 51 46 90 66 2b b3 bf
       -0.043054781026753954 -0.07488099119501969
000220 22 ba 59 1f be 4b aa bf b6 8b eb 65 be b5 c4 3f
       -0.05135912068077554 0.16179637886588488
000230 f0 60 90 22 71 c9 bb bf 0c f6 1d e2 b9 d1 8e 3f
       -0.10854250997397563 0.015048458302540112
000240 d1 e7 57 70 ff 23 d5 bf 22 d9 a6 cc a0 74 c8 3f
       -0.3303221318343477 0.1910592078472258
000250 92 95 75 30 ec dd b4 3f dd 80 b9 e7 85 88 c8 bf
       0.08151127036179265 -0.1916663533656963
000260 b6 b2 6d b1 b9 87 a7 3f 5b 92 40 c5 a4 86 98 3f
       0.04595737734675735 0.023951124705620646
000270 74 4c 23 de bc ba bb 3f 19 b3 aa 4c 44 0b d8 3f
       0.1083181421593496 0.3756876705836461
000280 b0 8e 45 93 43 f8 bf 3f f6 7f d4 33 74 19 d2 3f
       0.12488195748806663 0.28280358373194703
000290 19 af a2 e9 9c 92 c3 bf 36 55 36 f8 51 f1 b1 3f
       -0.1529117718504203 0.07008850393170438
0002a0 e6 8a 33 51 49 ef b4 bf d8 3d 7f 2c 29 99 db bf
       -0.08177622063116594 -0.4312231955090886
0002b0 00 9b d5 79 34 bc c1 bf fe 17 50 39 57 78 c3 bf
       -0.1385560603041185 -0.15211000727157392
0002c0 e4 5a aa fc 56 fe c9 3f 87 cc 0f eb d2 f9 c1 3f
       0.20307433449916978 0.14043652036307128
0002d0 b8 9c 1d 2d 80 e0 a5 bf 60 80 6c e9 cd c1 a7 bf
       -0.04272842932442117 -0.04640048479473147
0002e0 d7 33 cb dc 5b c1 b2 3f 05 72 54 96 5f 05 c0 3f
       0.07326292171929026 0.1251639827759307
0002f0 b6 b3 cc ee 68 cc bd 3f 99 5e 2d a4 b9 20 d3 3f
       0.11640029745167521 0.2988723853390894
000300 ac fd 56 26 aa ea be bf e1 ae 43 66 4c 1e b3 bf
       -0.12076819835691904 -0.07468106743516102
000310 34 7c 92 52 eb 06 9e bf c7 ec 9e dd 7c 03 c4 3f
       -0.02932326976280937 0.15635643788650652
000320 a1 1d 62 43 36 ac c8 bf 0d 30 80 8b a5 20 d0 3f
       -0.19275549211691348 0.25199259398573376
000330 cc 69 6f df 67 92 b9 3f 46 70 b1 a0 d3 5f b9 3f
       0.09989022450410018 0.09911844895526753
000340 59 8f ac b2 ab 27 b9 3f 01 09 cd 21 c1 8c b4 bf
       0.09826157676849102 -0.0802727420350813
000350 72 78 b5 44 ca 84 b8 3f 77 d7 e5 2a 75 12 d4 bf
       0.09577621629202485 -0.3136265677379621
000360 bd a2 13 25 44 56 a9 3f d3 60 40 68 d6 b7 b5 bf
       0.04948628380390605 -0.08483638806535802
000370 5f 59 b1 75 c8 7e c0 bf 6e b0 ad 75 a5 60 bd bf
       -0.12886911150662692 -0.11475595591554263
000380 ca 1b a2 eb 95 03 7f bf 44 7e 30 52 d3 50 a0 bf
       -0.0075717788951185725 -0.03186664942063236
000390 db 67 b0 89 50 86 c8 3f 24 42 43 fe d2 d4 cc bf
       0.1915989563283905 -0.2252448789136149
0003a0 f8 38 b7 93 f8 af c9 bf 30 37 23 ba 55 ab 9b bf
       -0.20068270886117268 -0.027020778165755377
0003b0 19 2d 61 17 19 e5 c2 3f 56 af 40 f5 0e cd c7 bf
       0.1476165165098358 -0.18594538665035526
0003c0 fc a2 d4 ab 88 a4 c3 bf 55 80 4d e1 46 fb bc 3f
       -0.15345867529074286 0.11320918083720362
0003d0 eb 24 63 93 b9 82 b3 bf b5 8f 76 01 8a 64 81 3f
       -0.0762134537536842 0.008492544335986322
0003e0 a9 65 ee 07 2c 3c 8c bf 6f 86 e5 2f 7e 38 c1 bf
       -0.013786643974344441 -0.13453652704906768
0003f0 67 c4 f8 cd 6e 5a b8 3f b2 8e 77 64 b0 96 e0 3f
       0.09512989548308469 0.5183946573492533
000400 7d 1a e3 0e 1b 67 d0 bf fb ab 18 2c 79 5e dc 3f
       -0.2562930722600994 0.44326619440352005
000410 db 69 1a 1f 06 9d b9 3f 1e 1a 58 6a 1a ea b2 3f
       0.10005224475245404 0.07388463112156571
000420 e2 f4 15 e7 39 8f d1 3f 74 0b c4 99 c4 81 c9 3f
       0.2743668324181511 0.1992727042016572
000430 12 41 68 21 67 11 e6 bf 40 21 f9 30 1f f9 d3 3f
       -0.6896243717656338 0.31208019049201496
000440 41 94 64 55 b2 e2 dc bf 2a c2 3e 45 48 f5 d2 bf
       -0.4513364633479036 -0.2962208439085169
000450 49 66 16 1d 51 5b ca bf 81 c4 1b 77 cb c5 c4 bf
       -0.2059117691067505 -0.16228621784060596
000460 69 f8 5f 82 89 90 b8 3f 8e 2f 98 35 63 b4 dd 3f
       0.09595546181660243 0.4641349814780761
000470 4f a7 4f 1c 50 15 c8 bf 15 56 68 44 d4 92 b5 bf
       -0.18815041906719407 -0.08427168531519443
000480 81 0a 1a df 29 22 b6 3f f1 0a 7e 57 94 a6 ad bf
       0.0864587945634785 -0.05791152542135148
000490 dd 2d 91 43 e0 03 9e bf c1 c8 bd 17 ca ed 86 bf
       -0.029311660884827496 -0.011195734834221207
0004a0 05 41 dd 55 03 5f cc 3f 2b c6 aa 95 ba 41 a1 3f
       0.22164956753341172 0.03370459630003738
0004b0 f2 3e 0d 7d c9 8c cb 3f f7 b1 ca 49 ed ab a2 bf
       0.21523398023645474 -0.03646794820574322
0004c0 d1 bd 5a 41 c4 44 ce 3f c2 42 41 89 1f ae db 3f
       0.2364735907662934 0.4325026359920622
0004d0 a8 57 23 5d 76 fb d4 3f bd b9 b9 77 b1 0c 9b bf
       0.32784804435265835 -0.02641560834165956
0004e0 39 9b ff 54 eb ab c3 bf ab b9 e1 5b 3d 09 c0 bf
       -0.1536840596229128 -0.1252819727555566
0004f0 6b b5 59 4e f0 b2 d5 bf 72 b9 55 ae e1 d0 dd 3f
       -0.3390465512410034 0.46587411904228937
000500 a1 d9 0f a6 c7 68 a6 3f 9a a4 ce 93 a2 41 db bf
       0.04376815702555637 -0.4258810466222457
000510 e4 40 8b 5a f9 81 89 3f 8f 55 c4 c9 b4 d1 c9 bf
       0.012454937053377475 -0.20171222545529274
000520 0e f7 30 48 47 12 81 3f 2a 22 0a ad 07 99 a8 bf
       0.008335644617655482 -0.0480425261239968
000530 69 92 ea 86 da b0 8f bf 93 33 25 8c 95 90 cd bf
       -0.01547404026252615 -0.23097485869439235
000540 c8 e0 7e 8d 77 5d c3 3f 97 5d 00 26 04 c7 a0 bf
       0.15128988656011289 -0.03276837314495678
000550 4f d4 41 6d 2f 51 ab 3f e6 ff 43 80 70 a0 b3 3f
       0.053353769385389264 0.07666686183438251
000560 b8 02 60 ed 7c 0a d2 bf 49 d0 79 aa f1 11 ba bf
       -0.2818901365390434 -0.10183630382545163
000570 e9 2f 50 73 59 fb b0 bf 5d e2 25 8d 6a b1 c0 bf
       -0.06633528771652632 -0.1304143132399699
000580 14 8c d0 42 4c d6 c2 3f 0a d6 7f 2a 0c 65 a9 bf
       0.14716485273774593 -0.04959905642310154
000590 75 38 eb 9f eb eb 9b bf 29 58 b1 3e b1 eb 9d bf
       -0.027267152438803472 -0.029219407512151605
0005a0 16 2b f2 44 c0 02 c2 bf 3a 6a fa 96 09 89 a7 bf
       -0.14070895544531287 -0.04596738784785655
0005b0 c9 58 fe 71 3c 35 ca 3f d5 de 64 ca 52 0a bc 3f
       0.20474963728037768 0.10953252259502773
0005c0 78 e9 d3 90 60 70 d2 bf af a3 b5 fe 05 fe b6 3f
       -0.2881089605649758 0.08981358974928243
0005d0 f5 5d d3 52 ee 9a d5 3f 50 3b c6 97 fa fa b1 bf
       0.33758123482172603 -0.07023588376453671
0005e0 c4 cf 0c 9f 08 a6 a3 3f 41 85 d2 50 bd 88 b2 3f
       0.038376111426628806 0.07239897940828134
0005f0 00 b0 2f 04 a9 b9 cd 3f 2c 11 52 a0 bb 1a b5 3f
       0.2322284002724473 0.08243916191174055
000600 85 18 df ef a9 66 c1 3f 18 ef 41 5b 6a cb a0 bf
       0.1359455510375406 -0.032801936759794426
000610 ae 7c d2 38 82 1e b1 bf 35 af e7 af 9e c1 a2 bf
       -0.06687177550564868 -0.036633452389507694
000620 5b ec 11 de 64 d2 c8 bf ff e6 f9 77 7b 3f be bf
       -0.1939207157446131 -0.11815616301637631
000630 bc 69 17 da 83 0e a9 bf 11 9e 51 aa fe 6c c1 bf
       -0.04893886601685746 -0.136138756907926
000640 62 26 bd 73 04 09 d6 bf 2a 27 39 1e 41 21 a5 bf
       -0.34430037787078593 -0.04126933568893627
000650 48 8a 7b a8 ba a1 c4 3f 5f a5 81 97 19 fc b9 bf
       0.16118558146179596 -0.10150299023520891
000660 a5 a8 66 89 ce 66 c4 bf 35 cb c9 76 d6 59 da 3f
       -0.15938741406472903 0.411733261112363
000670 a2 1d f2 17 ec 20 b8 bf 4e 8b ab 0a 2c c7 9a 3f
       -0.09425235352147479 0.02615040602803314
000680 d9 f8 77 84 76 94 b3 3f 59 b1 db 6c 7f 51 d0 bf
       0.07648411497209241 -0.2549742281978716
000690 b7 ca cd 63 80 43 c1 3f 51 85 3e b9 56 d9 99 3f
       0.13487248299823815 0.02524314408913614
0006a0 d8 35 ad 43 56 dd d5 bf 32 fe ab 0f 6e a1 7a 3f
       -0.34163433655780073 0.006501607824929633
0006b0 2c 42 63 94 eb c9 c2 bf 31 74 1b 5a ea e0 d1 3f
       -0.14678711648459009 0.2793527488664181
0006c0 46 91 0b da e2 05 c9 bf ad e6 80 7e 2e 8c c5 bf
       -0.19549213072526522 -0.16834050347261123
0006d0 49 d8 d5 ad 43 a8 d1 3f b5 8d 8b 5a 77 cb d3 bf
       0.2758950421915683 -0.30929359285638763
0006e0 a3 1f 00 f9 25 e2 cc bf c9 1c bc 6a b9 c0 c3 bf
       -0.2256514993498487 -0.1543189784208379
0006f0 4d 2c 34 ad 5a c0 b6 3f 50 8a 17 80 c9 3e d2 3f
       0.08887259224518225 0.285082221116828
000700 72 2f be c0 4e 4c ae bf ee 5b 2f ce 59 3e a5 bf
       -0.05917593100374931 -0.04149132387072273
000710 07 d0 c0 cb fe 4c b3 3f 5f d2 21 38 d6 88 a2 3f
       0.07539360498850566 0.036200231887879346
000720 e9 53 d6 67 7b 62 ad bf 73 e4 f4 ff b5 dc cc 3f
       -0.05739198343795932 0.2254855632579936
000730 f6 23 82 99 96 ad c3 bf c2 b1 2c 43 1d c2 a8 bf
       -0.15373499389195872 -0.04835597462656295
000740 b4 f3 1c 36 dd b9 bc bf 96 5d 4e b9 a6 31 ce 3f
       -0.11221106120224428 0.23589023636007472
000750 50 57 c3 28 94 9d cb 3f e3 88 5f 65 81 dc db 3f
       0.21574642172225333 0.4353335847828374
000760 a9 d4 f0 77 88 d8 b5 3f 76 08 cd 5c b8 57 d5 3f
       0.0853352825950703 0.33347901403988744
000770 1a 57 f2 19 ad 9d c8 bf 31 b8 30 f0 cb c0 c7 bf
       -0.1923118950550638 -0.185571186333108
000780 66 eb fb fc d7 38 b7 3f 8c 97 d9 9a ce 3b c4 bf
       0.09071111608856838 -0.1580751663306582
000790 26 2d 7e 8c ae 5f d1 3f 31 a3 ab 5c 2a 7e c4 3f
       0.27146495552070105 0.1601002647869563
0007a0 91 e2 b6 cb 7c fc 90 bf 5c ba b5 8f 68 45 bc bf
       -0.016588163312663943 -0.1104340887884318
0007b0 67 6f 28 f0 ab de 8f bf b3 86 e6 db 48 52 cb bf
       -0.015561431185282705 -0.21344862687424423
0007c0 31 66 9a c1 62 1f d5 bf 35 0c cb b8 2e cb c1 3f
       -0.3300406351714598 0.13901313803771279
0007d0 73 2c 8f 40 f7 85 83 3f 0c 00 fc d5 ff 53 86 3f
       0.009532863290493609 0.010902403562340644
0007e0 5c 5e bd 02 0a d7 d8 bf 4c e7 e9 5a 12 05 a7 3f
       -0.3881249453311051 0.04496056899820519
0007f0 53 4c 80 82 3e 95 c9 bf 09 da 20 9c 79 de d5 3f
       -0.19986707088591746 0.3417037987414067

B1 f8 [1, 32]
000000 72 e5 49 8b d1 09 a6 bf 39 03 47 8d 1b 03 9a bf
       -0.043043659451494146 -0.02540247964657569
000010 48 29 cc 61 43 95 62 3f 46 e7 c5 25 bf d7 b1 bf
       0.0022684398703677645 -0.06969828293031552
000020 f1 ca f4 b2 f9 fc 82 3f 97 0e a6 87 b4 a6 92 bf
       0.009271574758348918 -0.018214054850899854
000030 fb bf 9f 1b c7 a9 a7 bf ff 65 b1 7a 8c 1e 90 3f
       -0.046217176553795945 0.01574153422220625
000040 ef 41 4d 04 83 1b bb 3f be b8 ad f5 61 fa 87 bf
       0.10588854651474099 -0.011708035764709353
000050 2d 11 0c 87 b9 e1 9a bf 90 ca 78 ac 4e a2 a1 bf
       -0.02625169646036445 -0.0344414315735736
000060 ae 5f 0d 32 ef 3c d1 3f 90 19 49 f9 aa 33 b5 3f
       0.2693441380301874 0.08281963907311352
000070 7b 04 66 7d 61 90 bb 3f cd db f5 8c bd 7a 84 3f
       0.10767182647215805 0.009999733795423094
000080 80 37 13 b5 14 c9 93 bf 81 8b d0 33 fc f2 97 3f
       -0.01932175021357052 0.023387852346910435
000090 07 db 92 93 34 ea 92 3f df cb fe 0e 2a 34 c8 3f
       0.018471547610455576 0.18909192783539105
0000a0 25 27 5d 23 4b 9c a3 bf 29 ea 12 9f c9 a9 b8 3f
       -0.03830179983795138 0.0963407529224375
0000b0 59 ab 02 b4 0d 72 d1 3f a5 6f 83 dd 82 ed 9d 3f
       0.2725862749018027 0.0292263457966865
0000c0 11 7f 09 79 cc fd da 3f a3 db b4 d4 e4 2f a0 3f
       0.4217406446459658 0.03161540123476605
0000d0 85 e7 5b ed df d2 a5 3f 5c ff f4 b2 b5 d6 d3 3f
       0.0426244714016795 0.30997984386703137
0000e0 d3 08 5c 87 54 e2 c8 3f 7a 5c db 14 b4 60 d2 3f
       0.19440704926825578 0.2871523097687213
0000f0 34 72 52 23 7a 42 86 3f bb 6f 14 72 0f 5a b1 3f
       0.010868982508605553 0.06778046164657685

W2 f8 [32, 1]
000000 0e f7 a7 79 c1 49 db 3f ed 89 02 20 82 d2 ca 3f
       0.42637669449310145 0.2095492035196708
000010 59 3a ad b9 78 72 c1 bf a7 1a 49 a4 91 80 ca 3f
       -0.136305895483434 0.20704861184841158
000020 b1 6e 54 61 01 ac c1 bf b1 4f 74 40 e5 29 cc bf
       -0.13806168796951604 -0.22002854964432353
000030 02 db 17 2b bf 30 a5 3f 4e ab 2e 38 64 03 c4 bf
       0.04138753319778311 -0.15635349982525287
000040 87 a1 be 35 ee c3 c5 bf 0a ad 7d cf 81 d8 8f bf
       -0.17004182457209202 -0.015549673218365107
000050 9e a2 c6 29 41 99 de 3f 61 8c db 96 d5 9d ce 3f
       0.4781039150207479 0.23919172159284854
000060 83 40 1c ea 84 21 e5 bf 5e b6 b1 1e 66 24 f1 3f
       -0.6603416988819081 1.0713864516250378
000070 54 7d 42 fc 6d 9d d7 bf 8a 0c 1b cf 31 ce c4 3f
       -0.3689837420915485 0.16254255879002627
000080 19 fc a0 7a 36 b7 c0 bf 17 d4 02 04 20 79 d8 bf
       -0.13059121120201736 -0.3823928870363615
000090 88 36 b7 90 63 b4 6c bf 5f 0b 7f 5d 79 64 e0 bf
       -0.00350398489329146 -0.5122649026965113
0000a0 bb 08 4b 1f b2 67 dd bf a9 80 c9 b5 bf 5f ce bf
       -0.45945408874480237 -0.23729702354740326
0000b0 e4 fc c0 f4 f6 2f e5 bf ad 5a 1c 23 98 40 b0 bf
       -0.6621050625180058 -0.06348563058086638
0000c0 e3 25 36 9b 9a 5b ed bf f3 9c 45 cd 63 5c d2 3f
       -0.9174321204638399 0.28688902898870977
0000d0 f5 bb 7a 0c 5e 2d e0 3f bd d0 c7 0b 7d e1 eb bf
       0.5055380100001218 -0.8712754469002203
0000e0 8d 2d 7a 64 0d f3 e0 bf 61 d0 53 7c 6e 19 ed bf
       -0.529669471974033 -0.9093544414777278
0000f0 d4 9c 9e eb 9a b0 8c 3f 37 f5 8f c6 19 4e f1 3f
       0.01400872260621925 1.081567550310252

B2 f8 [1, 1]
000000 7b 4d 59 a7 62 f2 e1 bf
       -0.5608380573780062
